 CUDA-version: 10010 (10010), cuDNN: 7.6.5, GPU count: 1  
 OpenCV version: 3.2.0
yolov4-custom
 0 : compute_capability = 610, cudnn_half = 0, GPU: Tesla P4 
net.optimized_memory = 0 
mini_batch = 4, batch = 64, time_steps = 1, train = 1 
   layer   filters  size/strd(dil)      input                output
   0 conv     32       3 x 3/ 1    608 x 608 x   3 ->  608 x 608 x  32 0.639 BF
   1 conv     64       3 x 3/ 2    608 x 608 x  32 ->  304 x 304 x  64 3.407 BF
   2 conv     64       1 x 1/ 1    304 x 304 x  64 ->  304 x 304 x  64 0.757 BF
   3 route  1 		                           ->  304 x 304 x  64 
   4 conv     64       1 x 1/ 1    304 x 304 x  64 ->  304 x 304 x  64 0.757 BF
   5 conv     32       1 x 1/ 1    304 x 304 x  64 ->  304 x 304 x  32 0.379 BF
   6 conv     64       3 x 3/ 1    304 x 304 x  32 ->  304 x 304 x  64 3.407 BF
   7 Shortcut Layer: 4,  wt = 0, wn = 0, outputs: 304 x 304 x  64 0.006 BF
   8 conv     64       1 x 1/ 1    304 x 304 x  64 ->  304 x 304 x  64 0.757 BF
   9 route  8 2 	                           ->  304 x 304 x 128 
  10 conv     64       1 x 1/ 1    304 x 304 x 128 ->  304 x 304 x  64 1.514 BF
  11 conv    128       3 x 3/ 2    304 x 304 x  64 ->  152 x 152 x 128 3.407 BF
  12 conv     64       1 x 1/ 1    152 x 152 x 128 ->  152 x 152 x  64 0.379 BF
  13 route  11 		                           ->  152 x 152 x 128 
  14 conv     64       1 x 1/ 1    152 x 152 x 128 ->  152 x 152 x  64 0.379 BF
  15 conv     64       1 x 1/ 1    152 x 152 x  64 ->  152 x 152 x  64 0.189 BF
  16 conv     64       3 x 3/ 1    152 x 152 x  64 ->  152 x 152 x  64 1.703 BF
  17 Shortcut Layer: 14,  wt = 0, wn = 0, outputs: 152 x 152 x  64 0.001 BF
  18 conv     64       1 x 1/ 1    152 x 152 x  64 ->  152 x 152 x  64 0.189 BF
  19 conv     64       3 x 3/ 1    152 x 152 x  64 ->  152 x 152 x  64 1.703 BF
  20 Shortcut Layer: 17,  wt = 0, wn = 0, outputs: 152 x 152 x  64 0.001 BF
  21 conv     64       1 x 1/ 1    152 x 152 x  64 ->  152 x 152 x  64 0.189 BF
  22 route  21 12 	                           ->  152 x 152 x 128 
  23 conv    128       1 x 1/ 1    152 x 152 x 128 ->  152 x 152 x 128 0.757 BF
  24 conv    256       3 x 3/ 2    152 x 152 x 128 ->   76 x  76 x 256 3.407 BF
  25 conv    128       1 x 1/ 1     76 x  76 x 256 ->   76 x  76 x 128 0.379 BF
  26 route  24 		                           ->   76 x  76 x 256 
  27 conv    128       1 x 1/ 1     76 x  76 x 256 ->   76 x  76 x 128 0.379 BF
  28 conv    128       1 x 1/ 1     76 x  76 x 128 ->   76 x  76 x 128 0.189 BF
  29 conv    128       3 x 3/ 1     76 x  76 x 128 ->   76 x  76 x 128 1.703 BF
  30 Shortcut Layer: 27,  wt = 0, wn = 0, outputs:  76 x  76 x 128 0.001 BF
  31 conv    128       1 x 1/ 1     76 x  76 x 128 ->   76 x  76 x 128 0.189 BF
  32 conv    128       3 x 3/ 1     76 x  76 x 128 ->   76 x  76 x 128 1.703 BF
  33 Shortcut Layer: 30,  wt = 0, wn = 0, outputs:  76 x  76 x 128 0.001 BF
  34 conv    128       1 x 1/ 1     76 x  76 x 128 ->   76 x  76 x 128 0.189 BF
  35 conv    128       3 x 3/ 1     76 x  76 x 128 ->   76 x  76 x 128 1.703 BF
  36 Shortcut Layer: 33,  wt = 0, wn = 0, outputs:  76 x  76 x 128 0.001 BF
  37 conv    128       1 x 1/ 1     76 x  76 x 128 ->   76 x  76 x 128 0.189 BF
  38 conv    128       3 x 3/ 1     76 x  76 x 128 ->   76 x  76 x 128 1.703 BF
  39 Shortcut Layer: 36,  wt = 0, wn = 0, outputs:  76 x  76 x 128 0.001 BF
  40 conv    128       1 x 1/ 1     76 x  76 x 128 ->   76 x  76 x 128 0.189 BF
  41 conv    128       3 x 3/ 1     76 x  76 x 128 ->   76 x  76 x 128 1.703 BF
  42 Shortcut Layer: 39,  wt = 0, wn = 0, outputs:  76 x  76 x 128 0.001 BF
  43 conv    128       1 x 1/ 1     76 x  76 x 128 ->   76 x  76 x 128 0.189 BF
  44 conv    128       3 x 3/ 1     76 x  76 x 128 ->   76 x  76 x 128 1.703 BF
  45 Shortcut Layer: 42,  wt = 0, wn = 0, outputs:  76 x  76 x 128 0.001 BF
  46 conv    128       1 x 1/ 1     76 x  76 x 128 ->   76 x  76 x 128 0.189 BF
  47 conv    128       3 x 3/ 1     76 x  76 x 128 ->   76 x  76 x 128 1.703 BF
  48 Shortcut Layer: 45,  wt = 0, wn = 0, outputs:  76 x  76 x 128 0.001 BF
  49 conv    128       1 x 1/ 1     76 x  76 x 128 ->   76 x  76 x 128 0.189 BF
  50 conv    128       3 x 3/ 1     76 x  76 x 128 ->   76 x  76 x 128 1.703 BF
  51 Shortcut Layer: 48,  wt = 0, wn = 0, outputs:  76 x  76 x 128 0.001 BF
  52 conv    128       1 x 1/ 1     76 x  76 x 128 ->   76 x  76 x 128 0.189 BF
  53 route  52 25 	                           ->   76 x  76 x 256 
  54 conv    256       1 x 1/ 1     76 x  76 x 256 ->   76 x  76 x 256 0.757 BF
  55 conv    512       3 x 3/ 2     76 x  76 x 256 ->   38 x  38 x 512 3.407 BF
  56 conv    256       1 x 1/ 1     38 x  38 x 512 ->   38 x  38 x 256 0.379 BF
  57 route  55 		                           ->   38 x  38 x 512 
  58 conv    256       1 x 1/ 1     38 x  38 x 512 ->   38 x  38 x 256 0.379 BF
  59 conv    256       1 x 1/ 1     38 x  38 x 256 ->   38 x  38 x 256 0.189 BF
  60 conv    256       3 x 3/ 1     38 x  38 x 256 ->   38 x  38 x 256 1.703 BF
  61 Shortcut Layer: 58,  wt = 0, wn = 0, outputs:  38 x  38 x 256 0.000 BF
  62 conv    256       1 x 1/ 1     38 x  38 x 256 ->   38 x  38 x 256 0.189 BF
  63 conv    256       3 x 3/ 1     38 x  38 x 256 ->   38 x  38 x 256 1.703 BF
  64 Shortcut Layer: 61,  wt = 0, wn = 0, outputs:  38 x  38 x 256 0.000 BF
  65 conv    256       1 x 1/ 1     38 x  38 x 256 ->   38 x  38 x 256 0.189 BF
  66 conv    256       3 x 3/ 1     38 x  38 x 256 ->   38 x  38 x 256 1.703 BF
  67 Shortcut Layer: 64,  wt = 0, wn = 0, outputs:  38 x  38 x 256 0.000 BF
  68 conv    256       1 x 1/ 1     38 x  38 x 256 ->   38 x  38 x 256 0.189 BF
  69 conv    256       3 x 3/ 1     38 x  38 x 256 ->   38 x  38 x 256 1.703 BF
  70 Shortcut Layer: 67,  wt = 0, wn = 0, outputs:  38 x  38 x 256 0.000 BF
  71 conv    256       1 x 1/ 1     38 x  38 x 256 ->   38 x  38 x 256 0.189 BF
  72 conv    256       3 x 3/ 1     38 x  38 x 256 ->   38 x  38 x 256 1.703 BF
  73 Shortcut Layer: 70,  wt = 0, wn = 0, outputs:  38 x  38 x 256 0.000 BF
  74 conv    256       1 x 1/ 1     38 x  38 x 256 ->   38 x  38 x 256 0.189 BF
  75 conv    256       3 x 3/ 1     38 x  38 x 256 ->   38 x  38 x 256 1.703 BF
  76 Shortcut Layer: 73,  wt = 0, wn = 0, outputs:  38 x  38 x 256 0.000 BF
  77 conv    256       1 x 1/ 1     38 x  38 x 256 ->   38 x  38 x 256 0.189 BF
  78 conv    256       3 x 3/ 1     38 x  38 x 256 ->   38 x  38 x 256 1.703 BF
  79 Shortcut Layer: 76,  wt = 0, wn = 0, outputs:  38 x  38 x 256 0.000 BF
  80 conv    256       1 x 1/ 1     38 x  38 x 256 ->   38 x  38 x 256 0.189 BF
  81 conv    256       3 x 3/ 1     38 x  38 x 256 ->   38 x  38 x 256 1.703 BF
  82 Shortcut Layer: 79,  wt = 0, wn = 0, outputs:  38 x  38 x 256 0.000 BF
  83 conv    256       1 x 1/ 1     38 x  38 x 256 ->   38 x  38 x 256 0.189 BF
  84 route  83 56 	                           ->   38 x  38 x 512 
  85  Try to set subdivisions=64 in your cfg-file. 
CUDA status Error: file: ./src/dark_cuda.c : () : line: 373 : build time: Nov 16 2020 - 11:31:08 

 CUDA Error: out of memory
CUDA Error: out of memory: File exists
darknet: ./src/utils.c:325: error: Assertion `0' failed.
 CUDA-version: 10010 (10010), cuDNN: 7.6.5, GPU count: 1  
 OpenCV version: 3.2.0
yolov4-custom
 0 : compute_capability = 610, cudnn_half = 0, GPU: Tesla P4 
net.optimized_memory = 0 
mini_batch = 4, batch = 64, time_steps = 1, train = 1 
   layer   filters  size/strd(dil)      input                output
   0 conv     32       3 x 3/ 1    608 x 608 x   3 ->  608 x 608 x  32 0.639 BF
   1 conv     64       3 x 3/ 2    608 x 608 x  32 ->  304 x 304 x  64 3.407 BF
   2 conv     64       1 x 1/ 1    304 x 304 x  64 ->  304 x 304 x  64 0.757 BF
   3 route  1 		                           ->  304 x 304 x  64 
   4 conv     64       1 x 1/ 1    304 x 304 x  64 ->  304 x 304 x  64 0.757 BF
   5 conv     32       1 x 1/ 1    304 x 304 x  64 ->  304 x 304 x  32 0.379 BF
   6 conv     64       3 x 3/ 1    304 x 304 x  32 ->  304 x 304 x  64 3.407 BF
   7 Shortcut Layer: 4,  wt = 0, wn = 0, outputs: 304 x 304 x  64 0.006 BF
   8 conv     64       1 x 1/ 1    304 x 304 x  64 ->  304 x 304 x  64 0.757 BF
   9 route  8 2 	                           ->  304 x 304 x 128 
  10 conv     64       1 x 1/ 1    304 x 304 x 128 ->  304 x 304 x  64 1.514 BF
  11 conv    128       3 x 3/ 2    304 x 304 x  64 ->  152 x 152 x 128 3.407 BF
  12 conv     64       1 x 1/ 1    152 x 152 x 128 ->  152 x 152 x  64 0.379 BF
  13 route  11 		                           ->  152 x 152 x 128 
  14 conv     64       1 x 1/ 1    152 x 152 x 128 ->  152 x 152 x  64 0.379 BF
  15 conv     64       1 x 1/ 1    152 x 152 x  64 ->  152 x 152 x  64 0.189 BF
  16 conv     64       3 x 3/ 1    152 x 152 x  64 ->  152 x 152 x  64 1.703 BF
  17 Shortcut Layer: 14,  wt = 0, wn = 0, outputs: 152 x 152 x  64 0.001 BF
  18 conv     64       1 x 1/ 1    152 x 152 x  64 ->  152 x 152 x  64 0.189 BF
  19 conv     64       3 x 3/ 1    152 x 152 x  64 ->  152 x 152 x  64 1.703 BF
  20 Shortcut Layer: 17,  wt = 0, wn = 0, outputs: 152 x 152 x  64 0.001 BF
  21 conv     64       1 x 1/ 1    152 x 152 x  64 ->  152 x 152 x  64 0.189 BF
  22 route  21 12 	                           ->  152 x 152 x 128 
  23 conv    128       1 x 1/ 1    152 x 152 x 128 ->  152 x 152 x 128 0.757 BF
  24 conv    256       3 x 3/ 2    152 x 152 x 128 ->   76 x  76 x 256 3.407 BF
  25 conv    128       1 x 1/ 1     76 x  76 x 256 ->   76 x  76 x 128 0.379 BF
  26 route  24 		                           ->   76 x  76 x 256 
  27 conv    128       1 x 1/ 1     76 x  76 x 256 ->   76 x  76 x 128 0.379 BF
  28 conv    128       1 x 1/ 1     76 x  76 x 128 ->   76 x  76 x 128 0.189 BF
  29 conv    128       3 x 3/ 1     76 x  76 x 128 ->   76 x  76 x 128 1.703 BF
  30 Shortcut Layer: 27,  wt = 0, wn = 0, outputs:  76 x  76 x 128 0.001 BF
  31 conv    128       1 x 1/ 1     76 x  76 x 128 ->   76 x  76 x 128 0.189 BF
  32 conv    128       3 x 3/ 1     76 x  76 x 128 ->   76 x  76 x 128 1.703 BF
  33 Shortcut Layer: 30,  wt = 0, wn = 0, outputs:  76 x  76 x 128 0.001 BF
  34 conv    128       1 x 1/ 1     76 x  76 x 128 ->   76 x  76 x 128 0.189 BF
  35 conv    128       3 x 3/ 1     76 x  76 x 128 ->   76 x  76 x 128 1.703 BF
  36 Shortcut Layer: 33,  wt = 0, wn = 0, outputs:  76 x  76 x 128 0.001 BF
  37 conv    128       1 x 1/ 1     76 x  76 x 128 ->   76 x  76 x 128 0.189 BF
  38 conv    128       3 x 3/ 1     76 x  76 x 128 ->   76 x  76 x 128 1.703 BF
  39 Shortcut Layer: 36,  wt = 0, wn = 0, outputs:  76 x  76 x 128 0.001 BF
  40 conv    128       1 x 1/ 1     76 x  76 x 128 ->   76 x  76 x 128 0.189 BF
  41 conv    128       3 x 3/ 1     76 x  76 x 128 ->   76 x  76 x 128 1.703 BF
  42 Shortcut Layer: 39,  wt = 0, wn = 0, outputs:  76 x  76 x 128 0.001 BF
  43 conv    128       1 x 1/ 1     76 x  76 x 128 ->   76 x  76 x 128 0.189 BF
  44 conv    128       3 x 3/ 1     76 x  76 x 128 ->   76 x  76 x 128 1.703 BF
  45 Shortcut Layer: 42,  wt = 0, wn = 0, outputs:  76 x  76 x 128 0.001 BF
  46 conv    128       1 x 1/ 1     76 x  76 x 128 ->   76 x  76 x 128 0.189 BF
  47 conv    128       3 x 3/ 1     76 x  76 x 128 ->   76 x  76 x 128 1.703 BF
  48 Shortcut Layer: 45,  wt = 0, wn = 0, outputs:  76 x  76 x 128 0.001 BF
  49 conv    128       1 x 1/ 1     76 x  76 x 128 ->   76 x  76 x 128 0.189 BF
  50 conv    128       3 x 3/ 1     76 x  76 x 128 ->   76 x  76 x 128 1.703 BF
  51 Shortcut Layer: 48,  wt = 0, wn = 0, outputs:  76 x  76 x 128 0.001 BF
  52 conv    128       1 x 1/ 1     76 x  76 x 128 ->   76 x  76 x 128 0.189 BF
  53 route  52 25 	                           ->   76 x  76 x 256 
  54 conv    256       1 x 1/ 1     76 x  76 x 256 ->   76 x  76 x 256 0.757 BF
  55 conv    512       3 x 3/ 2     76 x  76 x 256 ->   38 x  38 x 512 3.407 BF
  56 conv    256       1 x 1/ 1     38 x  38 x 512 ->   38 x  38 x 256 0.379 BF
  57 route  55 		                           ->   38 x  38 x 512 
  58 conv    256       1 x 1/ 1     38 x  38 x 512 ->   38 x  38 x 256 0.379 BF
  59 conv    256       1 x 1/ 1     38 x  38 x 256 ->   38 x  38 x 256 0.189 BF
  60 conv    256       3 x 3/ 1     38 x  38 x 256 ->   38 x  38 x 256 1.703 BF
  61 Shortcut Layer: 58,  wt = 0, wn = 0, outputs:  38 x  38 x 256 0.000 BF
  62 conv    256       1 x 1/ 1     38 x  38 x 256 ->   38 x  38 x 256 0.189 BF
  63 conv    256       3 x 3/ 1     38 x  38 x 256 ->   38 x  38 x 256 1.703 BF
  64 Shortcut Layer: 61,  wt = 0, wn = 0, outputs:  38 x  38 x 256 0.000 BF
  65 conv    256       1 x 1/ 1     38 x  38 x 256 ->   38 x  38 x 256 0.189 BF
  66 conv    256       3 x 3/ 1     38 x  38 x 256 ->   38 x  38 x 256 1.703 BF
  67 Shortcut Layer: 64,  wt = 0, wn = 0, outputs:  38 x  38 x 256 0.000 BF
  68 conv    256       1 x 1/ 1     38 x  38 x 256 ->   38 x  38 x 256 0.189 BF
  69 conv    256       3 x 3/ 1     38 x  38 x 256 ->   38 x  38 x 256 1.703 BF
  70 Shortcut Layer: 67,  wt = 0, wn = 0, outputs:  38 x  38 x 256 0.000 BF
  71 conv    256       1 x 1/ 1     38 x  38 x 256 ->   38 x  38 x 256 0.189 BF
  72 conv    256       3 x 3/ 1     38 x  38 x 256 ->   38 x  38 x 256 1.703 BF
  73 Shortcut Layer: 70,  wt = 0, wn = 0, outputs:  38 x  38 x 256 0.000 BF
  74 conv    256       1 x 1/ 1     38 x  38 x 256 ->   38 x  38 x 256 0.189 BF
  75 conv    256       3 x 3/ 1     38 x  38 x 256 ->   38 x  38 x 256 1.703 BF
  76 Shortcut Layer: 73,  wt = 0, wn = 0, outputs:  38 x  38 x 256 0.000 BF
  77 conv    256       1 x 1/ 1     38 x  38 x 256 ->   38 x  38 x 256 0.189 BF
  78 conv    256       3 x 3/ 1     38 x  38 x 256 ->   38 x  38 x 256 1.703 BF
  79 Shortcut Layer: 76,  wt = 0, wn = 0, outputs:  38 x  38 x 256 0.000 BF
  80 conv    256       1 x 1/ 1     38 x  38 x 256 ->   38 x  38 x 256 0.189 BF
  81 conv    256       3 x 3/ 1     38 x  38 x 256 ->   38 x  38 x 256 1.703 BF
  82 Shortcut Layer: 79,  wt = 0, wn = 0, outputs:  38 x  38 x 256 0.000 BF
  83 conv    256       1 x 1/ 1     38 x  38 x 256 ->   38 x  38 x 256 0.189 BF
  84 route  83 56 	                           ->   38 x  38 x 512 
  85  Try to set subdivisions=64 in your cfg-file. 
CUDA status Error: file: ./src/dark_cuda.c : () : line: 373 : build time: Nov 16 2020 - 11:31:08 

 CUDA Error: out of memory
CUDA Error: out of memory: File exists
darknet: ./src/utils.c:325: error: Assertion `0' failed.
/bin/bash: ndivia: command not found
…
